Przed fine tuningiem:

    Model: "sequential"
    _________________________________________________________________
     Layer (type)                Output Shape              Param #
    =================================================================
     mobilenet_1.00_224 (Functio  (None, 1, 1, 1024)       3228864
     nal)

     flatten (Flatten)           (None, 1024)              0

     dropout (Dropout)           (None, 1024)              0

     dense (Dense)               (None, 512)               524800

     dense_1 (Dense)             (None, 10)                5130

    =================================================================
    Total params: 3,758,794
    Trainable params: 529,930
    Non-trainable params: 3,228,864
    _________________________________________________________________

    MNIST-784:

    Walidacja...
    438/438 [==============================] - 2s 5ms/step - loss: 1.7920 - accuracy: 0.3571
    Wynik:  0.3570714294910431

    fashion-MNIST:

    Walidacja...
    438/438 [==============================] - 2s 5ms/step - loss: 1.7041 - accuracy: 0.4227
    Wynik:  0.4227142930030823

Po fine tuningu:

    Model: "sequential"
    _________________________________________________________________
     Layer (type)                Output Shape              Param #
    =================================================================
     mobilenet_1.00_224 (Functio  (None, 1, 1, 1024)       3228864
     nal)

     flatten (Flatten)           (None, 1024)              0

     dropout (Dropout)           (None, 1024)              0

     dense (Dense)               (None, 512)               524800

     dense_1 (Dense)             (None, 10)                5130

    =================================================================
    Total params: 3,758,794
    Trainable params: 3,736,906
    Non-trainable params: 21,888
    _________________________________________________________________

    MNIST-784:

    Walidacja...
    438/438 [==============================] - 2s 4ms/step - loss: 0.0339 - accuracy: 0.9934
    Wynik:  0.9934285879135132

    Class  0 TP:  1342 FP:  6 FN:  1 TN:  12651
…
