Przed fine tuningiem:

    Model: "sequential"
    _________________________________________________________________
     Layer (type)                Output Shape              Param #
    =================================================================
     mobilenet_1.00_224 (Functio  (None, 1, 1, 1024)       3228864
     nal)

     flatten (Flatten)           (None, 1024)              0

     dropout (Dropout)           (None, 1024)              0

     dense (Dense)               (None, 512)               524800

     dense_1 (Dense)             (None, 10)                5130

    =================================================================
    Total params: 3,758,794
    Trainable params: 529,930
    Non-trainable params: 3,228,864
    _________________________________________________________________

    MNIST-784:

    Walidacja...
    438/438 [==============================] - 2s 4ms/step - loss: 1.7972 - accuracy: 0.3640
    Wynik:  0.36399999260902405

    fashion-MNIST:

    Walidacja...
    438/438 [==============================] - 2s 5ms/step - loss: 1.7041 - accuracy: 0.4227
    Wynik:  0.4227142930030823

Po fine tuningu:

    Model: "sequential"
    _________________________________________________________________
     Layer (type)                Output Shape              Param #
    =================================================================
     mobilenet_1.00_224 (Functio  (None, 1, 1, 1024)       3228864
     nal)

     flatten (Flatten)           (None, 1024)              0

     dropout (Dropout)           (None, 1024)              0

     dense (Dense)               (None, 512)               524800

     dense_1 (Dense)             (None, 10)                5130

    =================================================================
    Total params: 3,758,794
    Trainable params: 3,736,906
    Non-trainable params: 21,888
    _________________________________________________________________

    MNIST-784:

    Walidacja...
    438/438 [==============================] - 2s 4ms/step - loss: 0.0365 - accuracy: 0.9929
    Wynik:  0.9929285645484924

    Class  0 TP:  1338 FP:  6 FN:  5 TN:  12651
…
