Model: "sequential"
_________________________________________________________________
 Layer (type)                Output Shape              Param #   
=================================================================
 mobilenet_1.00_224 (Functio  (None, 2, 2, 1024)       3228864   
 nal)                                                            
                                                                 
 flatten (Flatten)           (None, 4096)              0         
                                                                 
 dropout (Dropout)           (None, 4096)              0         
                                                                 
 dense (Dense)               (None, 512)               2097664   
                                                                 
 dense_1 (Dense)             (None, 10)                5130      
                                                                 
=================================================================
Total params: 5,331,658
Trainable params: 2,102,794
Non-trainable params: 3,228,864
_________________________________________________________________


Confusion matrix:
Precision: TP/(TP+FP) Stosunek poprawnie wybranych do wszystkich wybranych tej klasy
Recall:  TP/(TP+FN) Stosunek poprawnie wybranych do ilości wystąpień tej klasy
…
